…
0.5, shear=0.0, perspective=0.0, flipud=0.0, fliplr=0.5, mosaic=1.0, mixup=0.0, copy_paste=0.0, auto_augment=randaugment, erasing=0.4, crop_fraction=1.0, cfg=None, tracker=botsort.yaml, save_dir=runs/detect/train\nDownloading https://ultralytics.com/assets/Arial.ttf to '/root/.config/Ultralytics/Arial.ttf'...\n100%|████████████████████████████████████████| 755k/755k [00:00<00:00, 16.5MB/s]\nOverriding model.yaml nc=80 with nc=1\n\n                   from  n    params  module                                       arguments                     \n  0                  -1  1      1856  ultralytics.nn.modules.conv.Conv             [3, 64, 3, 2]                 \n  1                  -1  1     73984  ultralytics.nn.modules.conv.Conv             [64, 128, 3, 2]               \n  2                  -1  3    279808  ultralytics.nn.modules.block.C2f             [128, 128, 3, True]           \n  3                  -1  1    295424  ultralytics.nn.modules.conv.Conv             [128, 256, 3, 2]              \n  4                  -1  6   2101248  ultralytics.nn.modules.block.C2f             [256, 256, 6, True]           \n  5                  -1  1   1180672  ultralytics.nn.modules.conv.Conv             [256, 512, 3, 2]              \n  6                  -1  6   8396800  ultralytics.nn.modules.block.C2f             [512, 512, 6, True]           \n  7                  -1  1   2360320  ultralytics.nn.modules.conv.Conv             [512, 512, 3, 2]              \n  8                  -1  3   4461568  ultralytics.nn.modules.block.C2f             [512, 512, 3, True]           \n  9                  -1  1    656896  ultralytics.nn.modules.block.SPPF            [512, 512, 5]                 \n 10                  -1  1         0  torch.nn.modules.upsampling.Upsample         [None, 2, 'nearest']          \n 11             [-1, 6]  1         0  ultralytics.nn.modules.conv.Concat           [1]                           \n 12                  -1  3   4723712  ultralytics.nn.modules.block.C2f             [1024, 512, 3]                \n 13                  -1  1         0  torch.nn.modules.upsampling.Upsample         [None, 2, 'nearest']          \n 14             [-1, 4]  1         0  ultralytics.nn.modules.conv.Concat           [1]                           \n 15                  -1  3   1247744  ultralytics.nn.modules.block.C2f             [768, 256, 3]                 \n 16                  -1  1    590336  ultralytics.nn.modules.conv.Conv             [256, 256, 3, 2]              \n 17            [-1, 12]  1         0  ultralytics.nn.modules.conv.Concat           [1]                           \n 18                  -1  3   4592640  ultralytics.nn.modules.block.C2f             [768, 512, 3]                 \n 19                  -1  1   2360320  ultralytics.nn.modules.conv.Conv             [512, 512, 3, 2]              \n 20             [-1, 9]  1         0  ultralytics.nn.modules.conv.Concat           [1]                           \n 21                  -1  3   4723712  ultralytics.nn.modules.block.C2f             [1024, 512, 3]                \n 22        [15, 18, 21]  1   5583571  ultralytics.nn.modules.head.Detect           [1, [256, 512, 512]]          \nModel summary: 365 layers, 43630611 parameters, 43630595 gradients, 165.4 GFLOPs\n\nTransferred 589/595 items from pretrained weights\n\u001b[34m\u001b[1mTensorBoard: \u001b[0mStart with 'tensorboard --logdir runs/detect/train', view at http://localhost:6006/\nFreezing layer 'model.22.dfl.conv.weight'\n\u001b[34m\u001b[1mAMP: \u001b[0mrunning Automatic Mixed Precisio
…
